app/mlsystem/model.ckpt (torch_old, 20612 bytes, 2 tensors)

weight f4 [5, 1007]
0	0xbcdeaca5	-0.027181933
1	0xbcc9b5ad	-0.024622763
2	0x3b5003e8	0.003174061
3	0xbc0295f5	-0.007970323
4	0xbc2871ed	-0.010281068
5	0x3bd77ec6	0.006576392
6	0xbb94485e	-0.0045252284
7	0x3cb7e87f	0.02244973
8	0xbb04c74f	-0.0020260399
9	0xbbaab657	-0.005209725
10	0xbbec36ec	-0.0072086956
11	0x3ca77d94	0.020445623
12	0xbca6eaf6	-0.02037571
13	0x3c98eb56	0.018666904
14	0xbc814cc6	-0.015783679
15	0xbc28fb5f	-0.010313838
16	0x3b2621d5	0.0025349755
17	0x3ce07313	0.027398622
18	0xbaf23e12	-0.0018481633
19	0xbcd7f0d1	-0.026359947
20	0xbcda269a	-0.026629735
21	0xbb8cbee7	-0.0042952183
22	0x3cea8ae9	0.02863069
23	0x3bfe8d82	0.007768334
24	0x3aad52d8	0.0013223542
25	0xbcfa77d1	-0.030574711
26	0x3c42ffc6	0.011901801
27	0xbc4423d5	-0.011971434
28	0xbc22413c	-0.009903248
29	0x3ac767ac	0.0015213392
30	0xba6f2c7d	-0.0009123756
31	0x3c84c0d2	0.016205225
32	0x3c49dce1	0.012320728
33	0x3cfd8cb6	0.030950885
34	0xbc5444ce	-0.012955857
35	0x3af1be1f	0.0018443501
36	0xbc2ccebf	-0.010547339
37	0xbc9263e5	-0.017869899
38	0xbc0c8378	-0.0085762665
39	0xbcbd5fce	-0.023116972
40	0xbcc18d25	-0.023626873
41	0xbc9685ed	-0.018374408
42	0x3cd2114f	0.025643019
43	0xbbd4d5b2	-0.006495201
44	0x3ca98085	0.020691166
45	0x3cbb62fd	0.02287435
46	0xbc3ca01d	-0.011512783
47	0xbcb1a4e7	-0.021685077
48	0xbc5d5ed5	-0.013511379
49	0xbce44d37	-0.02786885
50	0x3cc13186	0.023583185
51	0x3c17d712	0.009267585
52	0xbc880765	-0.016605088
53	0x3b494e58	0.0030716863
54	0xbadb954e	-0.001675287
55	0xbbce532b	-0.0062965355
56	0xbc1b3143	-0.009472194
57	0xbcd9388d	-0.026516223
58	0xbbd5f733	-0.0065297126
59	0x3c9c7fe8	0.01910396
60	0xbb0b62f1	-0.002126869
61	0xbc79e63d	-0.015252647
62	0x3bfc2b61	0.007695601
63	0x3b9523aa	0.0045513706
64	0xbccfda74	-0.025372721
65	0x3ccde774	0.02513478
66	0x3c6d96b1	0.01450126
67	0x3b16c5ad	0.0023006008
68	0x3cb62bcd	0.022237683
69	0x3a977d88	0.0011557797
70	0x3b06f75f	0.0020594222
71	0xbc26dad0	-0.010184005
72	0x3cfc2d8b	0.030783435
73	0x3bba8e50	0.0056932345
74	0xbcc15bc3	-0.023603326
75	0x3c82aeee	0.015952554
76	0x3c4eb0fc	0.012615439
77	0x3cd6244f	0.02614036
78	0x3c629094	0.013828415
79	0xbcd12330	-0.025529474
80	0x3c171d44	0.009223286
81	0xbc46ec55	-0.012141307
82	0x3cc7c4e7	0.024385883
83	0xbce8d130	-0.02842006
84	0x3a65fb35	0.00087730895
85	0x3c03c5a5	0.008042728
86	0xbcd33979	-0.025784241
87	0xb9e0df85	-0.00042891144
88	0xbc6c6a28	-0.0144296065
89	0x3cafb2f3	0.021447634
90	0x3cb21102	0.021736626
91	0x3927afb8	0.00015991821
92	0x3ceefa4d	0.029172087
93	0x3c1ced9d	0.009578136
94	0xbcb55182	-0.022133593
95	0xbc3f5c5b	-0.011679734
96	0x3cfea364	0.03108377
97	0x3c6a6a57	0.01430758
98	0xbb85190b	-0.0040618232
99	0xbcab0084	-0.02087427
100	0x3bdc3751	0.0067204614
101	0xbc38d79b	-0.011281873
102	0x3cb109e3	0.02161116
103	0xbc809c0f	-0.015699415
104	0xbc2c7fdb	-0.01052853
105	0xbcf0391a	-0.029324103
106	0xbce9ebc9	-0.028554814
107	0xbd007afc	-0.031367287
108	0xbcd10305	-0.025514135
109	0xbcab8d0c	-0.02094128
110	0xbca0cd93	-0.019629275
111	0x3a2dad3a	0.0006625239
112	0x3cd38281	0.025819065
113	0xbc953b69	-0.018216806
114	0x3cef2c7a	0.029196013
115	0x3c0d1cf7	0.008612863
116	0xbbe0c432	-0.006859326
117	0x3a1cbd81	0.0005979166
118	0xbbbf2f2a	-0.00583448
119	0x3c223aca	0.009901712
120	0x3c74d98b	0.014944444
121	0x3ba96347	0.0051693055
122	0xbb4f1530	-0.0031598322
123	0xbce76e75	-0.028250912
124	0x3ce35eb3	0.027755117
125	0xbcf28fb8	-0.029609546
126	0xbb9a42e9	-0.0047076833
127	0xbc5aff5b	-0.013366546
128	0x3cb76300	0.022386074
129	0x3b2f74b8	0.002677245
130	0xbc8e4c09	-0.01737024
131	0xbc933ec0	-0.017974257
132	0x3c3bf56a	0.0114720855
133	0xbcbad864	-0.022808261
134	0xbc1bde84	-0.009513501
135	0x3bfd768c	0.007735079
136	0x3ce13f78	0.027496085
137	0xbccae606	-0.024767887
138	0xbcba8a35	-0.02277098
139	0xbbc0fde2	-0.00588964
140	0xbcf95a3c	-0.030438535
141	0x3cdff498	0.027338311
142	0x3cd494fe	0.025949951
143	0x3cfda03a	0.030960191
144	0x3cf9a570	0.030474395
145	0x3bdb5b16	0.006694208
146	0xbce295d1	-0.027659329
147	0x3c00bdf7	0.007857791
148	0x3be3fc5f	0.006957575
149	0xba1c3a24	-0.00059595914
150	0xbc9f2ac8	-0.01942958
151	0x3cd348fc	0.025791638
152	0x3bb8aad7	0.0056356
153	0x3caf5933	0.021404838
154	0x3c47ca03	0.012194159
155	0xbacf634f	-0.0015822443
156	0x3cd3c03a	0.025848497
157	0x3cdab8ad	0.026699388
158	0x3ca648ac	0.020298325
159	0x3c3cb0c3	0.011516753
160	0xbcd829c6	-0.026387107
161	0x3cbeef27	0.023307396
162	0xbb22b89e	-0.0024829279
163	0x3b00cc98	0.0019653197
164	0xbca2839e	-0.01983815
165	0x3b9c7515	0.0047746995
166	0xbbfcb83a	-0.007712391
167	0x3cad1d03	0.021131998
168	0x3bd66581	0.006542862
169	0xbcd5cece	-0.026099589
170	0x33279bbb	3.9024354e-08
171	0xbccc9314	-0.024972476
172	0xbbec1876	-0.0072050644
173	0x3cd5acc4	0.026083358
174	0x3cd8e7ab	0.026477655
175	0xbcaa1f1e	-0.020766791
176	0x3ca14e24	0.01969058
177	0x3caee0f6	0.021347504
178	0x3c77df21	0.015128882
179	0x3bd73921	0.0065680896
180	0x3ca0842b	0.019594273
181	0x3be5908f	0.007005758
182	0x3cf8196a	0.030285556
183	0x3cb87813	0.022518193
184	0x3c8644f9	0.01639031
185	0x3cc8637a	0.024461497
186	0x3cb55517	0.0221353
187	0xbc4d2402	-0.012520792
188	0x3ca04e93	0.019568717
189	0xb9d0f2f0	-0.00039853854
190	0xbc1832fe	-0.009289501
191	0xba9fe5fe	-0.001219928
192	0x3c23eece	0.010005666
193	0x3c09e9a8	0.008417524
194	0xbc9c4a73	-0.019078469
195	0xbc69ba40	-0.014265597
196	0x3c7c9d1d	0.015418318
197	0x3cfb2be9	0.030660586
198	0x3c109f7a	0.008827085
199	0x3bfcfc62	0.007720516
200	0x3c92920f	0.017891912
201	0x3cd4fa59	0.025998281
202	0xbc4ca302	-0.012490036
203	0xbd0058a9	-0.031334553
204	0x3cec5f79	0.028854119
205	0xbc33014d	-0.010925603
206	0xbc10c3b9	-0.008835726
207	0x3b53b7cb	0.0032305594
208	0xbc0b638b	-0.00850762
209	0xbb6dd355	-0.0036289294
210	0x3ce00486	0.027345907
211	0x3c5df886	0.013548022
212	0x3c390317	0.011292241
213	0x3c570b40	0.013125241
214	0xbcad896f	-0.021183698
215	0xbcacf205	-0.021111498
216	0xbc5168ce	-0.012781335
217	0xbcaae994	-0.020863332
218	0x3bb041ed	0.0053789527
219	0xbc99fc4f	-0.018797068
220	0xbc6f283e	-0.014596997
221	0x3cab0efc	0.020881169
222	0x3a98ae39	0.0011648602
223	0xbc35d518	-0.011098169
224	0x3cf8fc05	0.03039361
225	0x3c2a75d4	0.010404069
226	0x3cfffc8b	0.031248352
227	0x3cbd2af8	0.023091778
228	0x3bcf3ee5	0.0063246363
229	0x3cd7fb44	0.02636493
230	0x3ce44a53	0.027867472
231	0x3cedbd84	0.029021032
232	0xbc8bb1d6	-0.017052572
233	0xbc314850	-0.010820463
234	0x3bfe92b0	0.0077689514
235	0xbb3fe0e5	-0.0029278335
236	0x3c1aeac3	0.009455386
237	0xbc442caf	-0.011973544
238	0xbc14816d	-0.009064061
239	0x3bc89308	0.006121043
240	0xbcf998d3	-0.03046838
241	0xbc7e1d63	-0.015509936
242	0x3c8ae89a	0.016956616
243	0xbcde8ffc	-0.027168266
244	0x3bd44ebe	0.0064791134
245	0xbc2c4eeb	-0.010516862
246	0xbc9a8aca	-0.018865008
247	0x3b876e04	0.004132988
248	0xbc519904	-0.012792829
249	0xbc281d10	-0.010260835
250	0x3c8dbfe9	0.017303424
251	0xbccb96a2	-0.0248521
252	0x3ab806e4	0.001404014
253	0x3c0c230d	0.008553279
254	0x3ccfab7a	0.025350321
255	0x3cea9769	0.028636651

bias f4 [5]
0	0x3ce14319	0.027497815
1	0x3deb9a34	0.11504021
2	0x3e48e05e	0.1961684
3	0xbcc17987	-0.023617519
4	0x3e3a251e	0.18178222
