app/mlsystem/model.ckpt (torch_old, 27552 bytes, 2 tensors)

weight f4 [5, 1354]
000000 00 38 ab ba 09 36 c5 3c 95 ec 15 bb 37 b4 3d bc
       -0.0013062954 0.024073618 -0.002287661 -0.011578611
000010 96 22 16 3c 6c ed 77 3c 4e ee c9 3c 6e cb b8 bc
       0.009163519 0.015132289 0.024649765 -0.02255794
000020 61 b4 b1 ba a5 7d b5 3b 48 f0 4d bc b4 04 c1 3b
       -0.0013557785 0.0055386596 -0.012569495 0.0058904532
000030 6c e7 34 3c 1a cb 21 bc 70 a4 5d bc ed 66 9e 3b
       0.011041503 -0.009875083 -0.0135279745 0.004834047
000040 55 37 c5 bc d6 ed 01 3c 61 35 49 3c 38 f0 bc 3b
       -0.024074236 0.00793024 0.012280793 0.005765941
000050 94 11 8d 3c c8 1a a2 bc 29 9a 83 3c 12 de a6 bc
       0.017220296 -0.01978816 0.01606472 -0.020369563
000060 e6 0f a3 3c 01 a2 39 3c 2e 8d b1 bc a2 96 c8 3c
       0.019905042 0.011330129 -0.021673765 0.02448589
000070 78 07 89 bc 10 fe 8b ba 50 26 37 3a 36 28 ec 3b
       -0.016727194 -0.0010680575 0.0006986605 0.007206942
000080 0a 25 e1 bb 62 53 b2 3c c3 11 1a bc 4d 9f ac bb
       -0.0068708705 0.021768276 -0.009403649 -0.0052680136
000090 6d c4 60 3c 95 ea 8d bc cc 65 19 3c 5b f9 36 3c
       0.013718707 -0.017323771 0.009362649 0.011167849
0000a0 05 9c 44 3c 61 7c b0 bb fc 07 88 37 94 d7 65 bc
       0.012000089 -0.005385921 1.6216181e-05 -0.014028449
0000b0 e0 c1 9f bc b4 c5 ac bb c8 48 b8 bb 1f d4 94 3a
       -0.019501626 -0.0052725915 -0.0056239106 0.0011354721
0000c0 ef cb 25 3c 2b dd a8 bc 28 09 ce bc b9 ee ce 3c
       0.010119422 -0.020613274 -0.02515085 0.025260316
0000d0 50 66 db bc f7 79 97 bc c0 22 59 3c 94 9b b4 bc
       -0.026782185 -0.018490775 0.013252914 -0.022046842
0000e0 f7 d3 7d bc fb b8 e0 b9 2d f0 b3 bc 04 fb e5 3a
       -0.015492431 -0.0004286243 -0.02196511 0.0017546122
0000f0 bc 4f 6a 3c 4d 1d 81 bc 3b 27 4e 3c 1d 1d b4 bc
       0.014301237 -0.015761042 0.012582595 -0.021986539
000100 9a 2c 1d bc 29 aa 9b 3b 83 c6 27 3c 7c 35 97 ba
       -0.009593153 0.0047505093 0.0102402 -0.0011536325
000110 8f 10 af bc 84 28 bb 3c f0 f6 e2 bc 74 41 51 bc
       -0.0213702 0.022846468 -0.02770564 -0.012771953
000120 b2 88 02 bc 07 34 90 3c 4b f7 5c 3c d7 7a d1 3a
       -0.007967161 0.017602934 0.013486694 0.0015982044
000130 84 d6 d6 3c 8c 7d 89 3c 79 78 b5 3c 47 67 b4 bc
       0.026225336 0.016783498 0.022152172 -0.022021903
000140 c6 16 f2 bb 40 9a 31 3a d3 b3 17 bc 28 60 2d bb
       -0.0073879687 0.0006774999 -0.009259182 -0.0026455019
000150 e4 fb 45 3c 21 f3 2a bc 25 b2 8e bc e8 23 ce 3c
       0.012083981 -0.010433943 -0.01741893 0.025163606
000160 79 81 b2 bc 6f b9 52 3b ad 89 6f bc ea c5 ad 3c
       -0.021790253 0.0032153984 -0.014620227 0.021212537
000170 68 84 53 3c 39 3a 94 3c 3b f8 61 3c 46 a3 1c 3c
       0.012909986 0.018094169 0.013792093 0.009560412
000180 86 1e 12 3c 9c 93 0b bb 5b 5d 93 bc 06 73 b3 3c
       0.00891841 -0.00212977 -0.017988851 0.021905433
000190 ad 5a d6 3c c2 d2 cc bc 5f 29 b5 bc 01 3a 99 3c
       0.026166284 -0.02500284 -0.022114454 0.018704416
0001a0 8a ac fc bc 10 44 9a bc a3 19 9c 3c ac c3 80 bc
       -0.030843992 -0.018831283 0.019055193 -0.015718304
0001b0 83 92 8a 3c 95 43 c5 3c 41 8a 02 3c 97 35 e7 bb
       0.016915565 0.024080077 0.007967533 -0.007055949
0001c0 41 b3 ba bb da ba dd 3c 96 7d 97 bc 73 70 b4 3c
       -0.0056976383 0.027066637 -0.018492501 0.022026276
0001d0 6c 85 09 3c 54 8f 7f bb c1 75 e8 bb 10 e1 bd 3c
       0.008393627 -0.0038995342 -0.0070941155 0.023178607
0001e0 31 f0 a6 3c 34 92 77 bb 31 a3 4d 3c 8e 69 f5 bb
       0.020378204 -0.0037776353 0.012551115 -0.0074893897
0001f0 98 17 1d bc 2b b7 25 3c 73 6d c6 bc 76 6f 8b 3c
       -0.009588145 0.010114471 -0.024222111 0.017020922
000200 2c be 29 bc b2 e3 e8 3a 3c fb 62 3c d8 a3 e3 3c
       -0.010360282 0.0017768054 0.013853844 0.027788088
000210 7d 51 4a ba a9 60 ba bc 78 2b 13 3c 23 9b 44 3c
       -0.0007717831 -0.02275117 0.008982532 0.011999878
000220 8f 57 97 bc 3c f2 c6 bc c7 82 c1 3c 00 be 80 3c
       -0.018474368 -0.024285428 0.02362193 0.015715599
000230 ac 1f 8b bc 4c 04 ab bc af e5 47 bc c5 8f da bb
       -0.016982876 -0.020876072 -0.012200757 -0.0066699707
000240 e3 dd 81 ba 30 c6 09 3c ff c3 c2 3c 25 6c 83 3b
       -0.0009908046 0.008409068 0.023775099 0.0040106946
000250 e5 ac 21 bc be 41 90 3c 0e 12 80 3b ca d1 62 3c
       -0.009867881 0.017609473 0.0039084023 0.013843963
000260 66 28 d7 3b 4b 87 c5 3b 45 6c 8f ba 0a f3 ac 3c
       0.006566095 0.006028091 -0.0010942301 0.021111984
000270 0f a1 93 3c 7a db bc 3b 80 bd 0a bc 66 d5 6c bb
       0.018021135 0.0057634683 -0.008468032 -0.0036137938
000280 9d 0d 2a 3c 1b ae 48 3c 5d 76 cf bc 4d 2d cc 3c
       0.010379222 0.012248541 -0.025324995 0.024923945
000290 ff 2f e5 3c c6 71 9e 3c 02 12 8d 3c 20 0d dc 3c
       0.027976988 0.01934136 0.0172205 0.026861727
0002a0 74 a8 88 bb 45 8a d0 bc 3f f8 93 bb c6 8b 67 3c
       -0.004170472 -0.025456557 -0.004515677 0.014132446
0002b0 d2 aa 97 bc 2f 46 89 3c 1e 68 9f 3c 5b 8b b7 3c
       -0.01851407 0.016757099 0.019458827 0.022405317
0002c0 f8 a1 96 bc 0c f8 d2 bb f0 b7 6a 39 f2 88 0c 3b
       -0.01838778 -0.006438261 0.00022384501 0.002144393
0002d0 2f 9f 31 bc 67 4e b2 3a 66 fd 89 bc 6f a8 e2 3c
       -0.010841175 0.0013603688 -0.016844463 0.027668206
0002e0 64 2d 5c 3c e6 f6 ad 3c e8 1c c8 bc 8d 46 bd 3c
       0.013438556 0.021235894 -0.024427846 0.02310493
0002f0 44 6f 63 bc 80 44 7a 3c 06 47 a8 3c d3 88 88 3c
       -0.013881508 0.015275121 0.02054168 0.016666805
000300 4f 97 e7 bb ad c6 ce bc 34 95 d1 3c 61 b6 1c bc
       -0.007067598 -0.02524122 0.02558384 -0.009564967
000310 c3 28 03 3c 30 4e a8 bb 48 be 28 3c 2a 11 4d bc
       0.008005324 -0.005136274 0.010299273 -0.012516299
000320 e4 46 d9 bc 50 b8 b9 3c f8 90 ca 3c 4a 0e c4 3c
       -0.026523061 0.022670895 0.02472733 0.023932595
000330 04 55 44 3c cf 62 aa bc b0 30 26 bc 46 44 33 b9
       0.01198316 -0.020799069 -0.010143444 -0.00017096204
000340 3e 7d e5 3c f4 23 92 3c 27 5f 9e bc 55 d3 09 3c
       0.028013822 0.01783941 -0.019332482 0.008412202
000350 22 0e 8e bc 8c 2d b5 3c 6d 98 a7 3c 1c 55 88 3a
       -0.017340723 0.022116445 0.020458424 0.0010401341
000360 55 3b a9 3c cc 31 dd 3b 60 61 22 bc ff 52 fb bc
       0.020658175 0.006750321 -0.009910911 -0.030679224
000370 75 cf d6 bc 6f 0d 00 bc 37 6a 8f 3c de 99 bb 3c
       -0.02622197 -0.007815703 0.017506702 0.022900518
000380 67 08 be 3c de 64 43 bc 42 fb a6 bc 58 52 7c bc
       0.023197366 -0.011925904 -0.020383481 -0.015400492
000390 78 05 fb ba fb e8 da bc 58 c5 b7 3c ff 21 1c 3b
       -0.001915141 -0.026722422 0.022432968 0.0023823974
0003a0 99 84 34 3c 60 1c 71 bc 55 c2 09 bc d6 43 84 3c
       0.011017942 -0.014716238 -0.008408149 0.016145628
0003b0 2e ef 94 3c e8 bf 3b bc 50 d2 95 bc a3 a7 92 bc
       0.018180456 -0.011459328 -0.018288761 -0.017902201
0003c0 de 39 1c bb 73 04 f8 bc 8a 29 da 3c 77 c1 67 ba
       -0.0023838202 -0.030275559 0.026631135 -0.0008840779
0003d0 36 ed 79 bc ff 68 c6 3b b1 76 7c 3c 0c ea 59 bc
       -0.015254309 0.006054997 0.015409158 -0.01330043
0003e0 f3 99 e9 bc 63 2c 15 bc 21 ed ca bb 62 9e a3 bc
       -0.028515792 -0.009104821 -0.0061928187 -0.019972984
0003f0 44 43 d3 3c 6b 36 42 bc d8 53 13 3c 8e ba b2 3b
       0.02578891 -0.011853795 0.008992158 0.005454368

bias f4 [5]
000000 95 ec 47 3d 75 93 2c 3e db b1 8a 3e 42 e1 66 bd
       0.048809607 0.16853125 0.27088818 -0.056367166
000010 73 0a 90 3e
       0.28132972
