app/mlsystem/model.ckpt (torch_old, 40472 bytes, 2 tensors)

weight f4 [5, 2000]
0	0x3ca7517e	0.0204246
1	0x3ca654f4	0.02030418
2	0x3cabfbb1	0.02099404
3	0x3c9a4ce0	0.018835485
4	0x3c3c8307	0.011505849
5	0x3b8920c4	0.004184814
6	0xbc5c3fb8	-0.013442926
7	0xbbc38623	-0.005966918
8	0x3c734559	0.014848077
9	0xbc2c76e1	-0.01052639
10	0xbc8dfd08	-0.017332569
11	0xbc889c33	-0.016676044
12	0x3a2d4a34	0.00066104834
13	0x3ca98b6a	0.02069636
14	0x3bd4df7d	0.0064963684
15	0x3cb14acb	0.02164211
16	0xbc83ce3e	-0.016089555
17	0xbb60b44b	-0.003428715
18	0xbc999f7f	-0.018752811
19	0x3b251f17	0.0025195533
20	0xbc2e04dd	-0.010621277
21	0x3bd22c0a	0.0064139413
22	0xbbf16d30	-0.0073677525
23	0x3ca0f1cf	0.019646553
24	0x3c222ae0	0.0098979175
25	0xba858058	-0.0010185344
26	0x3b6753a0	0.0035297647
27	0x3b2d5ced	0.0026453093
28	0x3b75ab2f	0.0037486067
29	0x3b5653e3	0.003270381
30	0x3ca58e70	0.020209521
31	0xbc0aea89	-0.008478769
32	0x3ca9f42b	0.020746311
33	0x3ca6c178	0.020355925
34	0x3c9c5134	0.01908169
35	0xbcaee016	-0.021347087
36	0x3b06276a	0.002047027
37	0x3ba4a270	0.005024247
38	0x3c9fa680	0.019488573
39	0x3c6a0684	0.01428378
40	0x3c113902	0.008863689
41	0x3ca7b48e	0.020471837
42	0x3ca0ba14	0.019619979
43	0xbc8c442c	-0.01712235
44	0xbb7dc1dd	-0.0038720288
45	0x3ba9eff9	0.0051860777
46	0x3c50642a	0.0127191935
47	0x3c1933a0	0.009350687
48	0xbbc8e394	-0.006130645
49	0x3c82e8cc	0.015980147
50	0x3cb3a48f	0.021929054
51	0x3c004108	0.007828005
52	0xbbe64a57	-0.007027905
53	0xbc5da6da	-0.01352855
54	0x3c230d51	0.009951905
55	0x3b06737d	0.0020515614
56	0x3c11f1d2	0.008907752
57	0x3adbc3d0	0.0016766731
58	0x3cb46c0f	0.022024183
59	0x3cb36639	0.02189933
60	0xbca6e397	-0.020372195
61	0xbc877fe2	-0.016540471
62	0x3c497370	0.012295589
63	0x3b1ddb10	0.002408687
64	0xbb5e8f69	-0.003395999
65	0xbc5c00c5	-0.013427918
66	0xba963969	-0.0011461201
67	0x3c6bcf0a	0.014392624
68	0xbc7dca57	-0.015490136
69	0xbb85bf1c	-0.00408162
70	0x3c730b19	0.014834189
71	0xbc8ee2cf	-0.017442135
72	0xbb664e5b	-0.0035141918
73	0x3c4eb1e7	0.012615657
74	0x3c74b05e	0.014934627
75	0x3c87338a	0.016504068
76	0x3c794924	0.015215192
77	0xbc4aff07	-0.012389905
78	0x3921fe91	0.0001544899
79	0xbbbcfde6	-0.0057675717
80	0xbbadb926	-0.0053016124
81	0x3c15bba6	0.009138977
82	0xbba5f02b	-0.0050640306
83	0xbb2dff39	-0.002654983
84	0x3b96c2f4	0.004600877
85	0x3bc908b3	0.00613507
86	0xbc9f6b7c	-0.019460432
87	0x3bcc5901	0.006236196
88	0xbc63dbc2	-0.013907375
89	0x3ca96caa	0.020681698
90	0xbc8fd608	-0.017558113
91	0x3c1419a4	0.009039316
92	0x3af90221	0.0018997827
93	0xbc4545b2	-0.012040542
94	0x3c30e5f7	0.010797015
95	0x3bc02f87	0.0058650407
96	0x3be144cb	0.006874656
97	0xba1812b9	-0.000580113
98	0x3b5e2188	0.0033894498
99	0x3c1f1a4a	0.009710858
100	0x3c8f155d	0.017466241
101	0xbc8046a8	-0.015658692
102	0xbc3b7677	-0.011441818
103	0xbc297133	-0.01034193
104	0x3b66617a	0.0035153315
105	0x3c3c16af	0.011480018
106	0x3c0ebe35	0.008712341
107	0x3c4ed635	0.012624313
108	0xbb58d07b	-0.0033083248
109	0xbc899576	-0.016794901
110	0xbc92dedc	-0.017928533
111	0xbc4c0aeb	-0.012453775
112	0x3c256cd2	0.010096746
113	0xbc9a1cc3	-0.018812543
114	0xbc4079c8	-0.011747785
115	0x3caba17f	0.02095103
116	0x3c4910c5	0.012272065
117	0x3c4c5645	0.01247174
118	0xbc164649	-0.009172031
119	0x3b2c3fe9	0.002628321
120	0x3b93661b	0.004498256
121	0xbbb50701	-0.0055245166
122	0xbc1d62af	-0.0096060475
123	0x3b07f251	0.0020743797
124	0x3c88d847	0.016704692
125	0xbb126666	-0.0022338866
126	0xbca5b1af	-0.020226328
127	0xbcb37148	-0.021904603
128	0xbc57a3c8	-0.013161607
129	0x3c1de85e	0.00963792
130	0xbc708f98	-0.014682673
131	0xbc977b99	-0.018491553
132	0x3c45fd39	0.012084299
133	0x395ec90c	0.00021246466
134	0x3c9e16d2	0.019297991
135	0x3a902c03	0.0010999445
136	0x3b9754b7	0.004618253
137	0xbcb07820	-0.021541655
138	0xbca25775	-0.019817093
139	0xbc45e821	-0.01207927
140	0x3ca1bf2c	0.019744478
141	0x3a90232b	0.0010996809
142	0x3aaba72d	0.0013096087
143	0x3bbf4162	0.0058366517
144	0x3c8ee919	0.017445134
145	0x3c8e3b87	0.01736237
146	0xbc136252	-0.008995609
147	0xbc5f9f68	-0.013648845
148	0xbca80421	-0.020509781
149	0x3c4e8054	0.012603838
150	0xbba6f9eb	-0.0050957105
151	0x3c9a7556	0.018854778
152	0x3b928caa	0.004472335
153	0x3c5813fe	0.01318836
154	0x3afb116c	0.0019154972
155	0x3c75662c	0.014977973
156	0xbc57740c	-0.013150226
157	0xbc9c3fb5	-0.019073347
158	0x3c3c79d0	0.011503652
159	0xbbf8ae7c	-0.0075891595
160	0xb8937d8f	-7.032893e-05
161	0x3c99d180	0.018776655
162	0x3c88512d	0.01664027
163	0x3ca2de15	0.019881288
164	0x3c832b7d	0.016011948
165	0x3c9e7c32	0.01934633
166	0xbc8e65eb	-0.017382583
167	0xbc9dbaec	-0.01925417
168	0x3b034488	0.0020029861
169	0xbb52ce5e	-0.0032166461
170	0x3ca59699	0.020213412
171	0x3bea9951	0.00715939
172	0x3c111d5e	0.008857099
173	0xbb211636	-0.002457989
174	0x3cb33226	0.021874499
175	0xbb97187d	-0.0046110735
176	0x3c085750	0.008321598
177	0xbc86cc2d	-0.01645478
178	0x3c8cab97	0.017171664
179	0x3c55d5af	0.013051434
180	0x3b63e7ce	0.0034775618
181	0x3a2b8a77	0.0006543765
182	0xbc7cd270	-0.015431032
183	0x3b8355b9	0.0040080217
184	0x3bd856a9	0.0066021276
185	0x3bac6d03	0.0052620186
186	0xbb85285d	-0.0040636496
187	0xbc0194ea	-0.007909039
188	0xbc593cd0	-0.013259128
189	0xbbf3689c	-0.007428242
190	0x3aa2a974	0.001241012
191	0xbc97fd5a	-0.018553425
192	0x3bf3ff58	0.007446211
193	0xbb6895b6	-0.0035489625
194	0xbc011978	-0.007879607
195	0xbc828604	-0.015933044
196	0x3c0bc478	0.0085307285
197	0x3bf75db6	0.007549013
198	0x3c03b019	0.00803759
199	0xbbdc9cdb	-0.006732566
200	0x3c99ef12	0.018790755
201	0x3b9699c6	0.004595968
202	0xbb873dc1	-0.0041272347
203	0x3ba428f2	0.005009764
204	0x3ac0d341	0.0014711396
205	0xbcafe1e0	-0.02147001
206	0xbbce0757	-0.006287496
207	0x3bfbfaa5	0.0076897913
208	0x3ba4b3be	0.0050263098
209	0x3a46c385	0.0007582235
210	0x3c8ef01a	0.017448474
211	0xbc9da43c	-0.019243352
212	0xb89c2848	-7.4461626e-05
213	0x3bca3187	0.006170455
214	0xbc92eb21	-0.017934384
215	0xbc2e9dc5	-0.010657732
216	0x3cb2cab7	0.021825178
217	0xbb29ee7c	-0.0025929501
218	0xbc6d17af	-0.014470979
219	0x3c73d0bd	0.01488131
220	0xbc57161a	-0.013127828
221	0xbb8b7893	-0.004256317
222	0xbc50c52b	-0.012742321
223	0xbb13d9c1	-0.0022560211
224	0xbc12be26	-0.008956468
225	0x3995372c	0.000284606
226	0xbca06e1b	-0.019583752
227	0xbc48b850	-0.012250975
228	0xbcaeb34a	-0.021325726
229	0x3c5af956	0.01336511
230	0x3c9f3235	0.01943312
231	0x3baa2861	0.005192802
232	0x3b4f99af	0.0031677296
233	0x3beea29d	0.0072825686
234	0xbca0ad08	-0.019613758
235	0xbc123a5e	-0.008925049
236	0x3bb238c5	0.0054388964
237	0xbc3758c6	-0.011190599
238	0xba4d3804	-0.00078284764
239	0xba11e43c	-0.00055653206
240	0xbcaa0a63	-0.020756906
241	0x3b701355	0.0036632617
242	0x3aa8b612	0.0012871644
243	0xbb171aad	-0.0023056671
244	0x3cb4f223	0.022088116
245	0xbc2e886a	-0.010652641
246	0xbc7289cf	-0.014803364
247	0x3c83cd6f	0.01608917
248	0x3a53480d	0.00080597476
249	0x3c3792a0	0.011204392
250	0x3afceac3	0.0019296039
251	0xbc227c4b	-0.009917329
252	0xbc8b5632	-0.017008875
253	0xbca214ea	-0.019785363
254	0xbbf0bb9e	-0.0073465845
255	0x3bb4d3b2	0.0055184

bias f4 [5]
0	0xba90762f	-0.001102155
1	0x3cf84f56	0.030311268
2	0x3d465329	0.04841915
3	0xbc99ba7d	-0.018765682
4	0x3cddcbdc	0.027074747
