app/mlsystem/model.ckpt (torch_old, 40548 bytes, 2 tensors)

weight f4 [5, 2000]
0	0x3b047789	0.002021285
1	0x3be3802e	0.0069427704
2	0xbca2e391	-0.019883903
3	0xbb37e291	-0.0028058628
4	0xbcaa8486	-0.020815145
5	0xbc9a1ac4	-0.018811591
6	0xbbeac8d8	-0.0071650557
7	0xbb87c340	-0.0041431487
8	0x3c7b9d05	0.015357261
9	0x3cab23e2	0.020891134
10	0xbca61b10	-0.020276576
11	0x3ca905c7	0.020632638
12	0x3c90579b	0.017619899
13	0xbc5586e7	-0.0130326515
14	0xbc292a94	-0.010325093
15	0xbc372685	-0.011178617
16	0xbc314b64	-0.010821197
17	0x3b7dce1b	0.0038727585
18	0x3c60a457	0.013711057
19	0xbc2d5d41	-0.0105813155
20	0xbc10217c	-0.008797046
21	0xbc223ba5	-0.009901916
22	0x3cac364c	0.021021985
23	0x3b04d42e	0.002026807
24	0xbc0461ac	-0.008079927
25	0x3c03f93e	0.008055029
26	0x3c41f95d	0.011839238
27	0xbb93e9ca	-0.004513954
28	0xba9ea2ed	-0.0012102999
29	0xbc926bcf	-0.017873673
30	0x3cb5473b	0.022128692
31	0xbc24ac57	-0.010050855
32	0x3c902ec4	0.017600425
33	0x3c3feb5e	0.011713831
34	0x38b7fd40	8.7732915e-05
35	0xbbccb588	-0.006247226
36	0x3c81df0d	0.01585343
37	0x3c9e25ec	0.019305192
38	0x3c8d029e	0.017213162
39	0x3c858195	0.016297141
40	0x3bd0d5c7	0.0063731405
41	0x3c2e5634	0.01064067
42	0x3c7bd329	0.015370169
43	0xbbdce8b1	-0.006741606
44	0xbab07923	-0.0013463836
45	0xbb330cb5	-0.0027320806
46	0x3c19e290	0.009392396
47	0xba794b83	-0.00095098483
48	0xbc34e056	-0.011039814
49	0xbaa80d59	-0.0012821361
50	0x3b8152df	0.0039466466
51	0x3caba264	0.020951457
52	0x3c528775	0.012849678
53	0xbc55f291	-0.013058321
54	0xbc6feec4	-0.0146443285
55	0xbc6d82a1	-0.014496476
56	0xbc2cf8e4	-0.010557387
57	0x3c458f9a	0.012058163
58	0x3c41251e	0.011788635
59	0x3c4c28be	0.012460886
60	0xbbfa0b0d	-0.007630712
61	0x3c686e51	0.014186458
62	0x3b2cf028	0.0026388261
63	0x3c9022f8	0.0175948
64	0xbca68d6c	-0.020331107
65	0x3c2a304c	0.010387491
66	0xbbcc8e5d	-0.006242557
67	0x3c9c8701	0.019107344
68	0xbcab8f0a	-0.02094223
69	0xbc8c1aa7	-0.017102553
70	0x3c8ae6c1	0.016955735
71	0x3ca6a31e	0.020341452
72	0x3c1c6d60	0.009547561
73	0xbc360bf7	-0.011111251
74	0x3c5ba9fc	0.013407227
75	0xbc3f3ca9	-0.011672177
76	0xbb04405e	-0.0020179967
77	0x3ac4842b	0.0014993002
78	0xbca06f51	-0.01958433
79	0xbb5033ef	-0.0031769236
80	0x3b27ed4b	0.0025623615
81	0xbc25e1ec	-0.010124665
82	0xbc5889a3	-0.013216409
83	0x3c54b966	0.012983656
84	0xbc2c743f	-0.010525762
85	0xbba5acc9	-0.005055998
86	0xbc551c76	-0.013007274
87	0xbbeae82e	-0.0071687913
88	0xbb37fba0	-0.0028073564
89	0x3c5721b0	0.01313059
90	0xbc34abf6	-0.011027327
91	0x3cb334a3	0.021875685
92	0xbc3408a0	-0.0109883845
93	0xbc58d1ea	-0.013233641
94	0xbb8c6597	-0.0042845714
95	0x3c18bb89	0.009322056
96	0xbc44fcaf	-0.012023135
97	0xbc898e09	-0.01679136
98	0x3c825e93	0.015914237
99	0x3c014603	0.007890227
100	0xbb8dfbc1	-0.00433299
101	0xbbac0e1f	-0.005250707
102	0x3c9ff148	0.019524232
103	0xbb45db4b	-0.0030190523
104	0xbaca3aee	-0.0015428939
105	0x3c96392e	0.018337812
106	0x3c8e7164	0.017388053
107	0x3bcf36a3	0.006323652
108	0x3ad6d5c4	0.0016390611
109	0x3c7dc702	0.015489342
110	0x3bd444b5	0.006477917
111	0xbb3e66b8	-0.0029052924
112	0xbbb61f7b	-0.005557952
113	0x3c9c3348	0.019067422
114	0xbb97ddad	-0.00463458
115	0xbbfd8e5f	-0.007737919
116	0x3b9f4b36	0.0048612608
117	0x3ca6ee1f	0.020377217
118	0xbbc299ba	-0.005938736
119	0x398bbdc7	0.0002665354
120	0x3bf7a95f	0.0075580324
121	0xbc112d9d	-0.008860973
122	0x3a9ff599	0.0012203931
123	0x3b1e24d1	0.002413083
124	0xbc3418f9	-0.010992282
125	0xba9a59c6	-0.0011776022
126	0x3c59470d	0.013261569
127	0xbca36fb8	-0.019950733
128	0x3c76462b	0.015031378
129	0x3c72835a	0.014801824
130	0x3bd40159	0.006469887
131	0x3c3a9072	0.0113869775
132	0xbbebdf42	-0.0071982453
133	0x3c723f00	0.014785528
134	0x3a6a820a	0.0008945769
135	0xbbd1eff3	-0.006406778
136	0xbc137fd2	-0.009002643
137	0xbb9b10f0	-0.0047322437
138	0x3c36fd24	0.011168752
139	0xb981ad97	-0.00024734132
140	0xbb34be29	-0.0027579165
141	0xbc0e70df	-0.008693903
142	0xbc81ce9a	-0.015845586
143	0xbc8f23b3	-0.017473077
144	0x3be59e9a	0.007007432
145	0x3c12ca68	0.00895939
146	0xbb3bee80	-0.0028676093
147	0x3bcab541	0.006186158
148	0xbba75203	-0.005106212
149	0x3b15db47	0.0022866295
150	0x3c0e500a	0.008686075
151	0x3b7e8745	0.003883795
152	0x3b26aa27	0.0025431009
153	0xbbada974	-0.0052997414
154	0xbaa40fec	-0.0012516952
155	0xbc3dcbe8	-0.01158426
156	0xbcae54c8	-0.021280661
157	0x3cb45ac1	0.022015931
158	0xbb039d2a	-0.002008269
159	0x3c2d92ae	0.010594053
160	0xbcae0a3b	-0.021245113
161	0xbc5430b3	-0.012951064
162	0x3cb4e234	0.022080518
163	0x3b2146f2	0.0024608937
164	0x3c79e5f5	0.01525258
165	0xbc0384a1	-0.008027227
166	0xbb5b65b7	-0.0033477375
167	0xbc4ccf99	-0.012500667
168	0x3c6a7a76	0.0143114235
169	0x3c6d8376	0.014496675
170	0x3c9ff59b	0.019526294
171	0x3c76bdf8	0.0150599405
172	0xbb869844	-0.004107507
173	0x3b6a32a7	0.0035735758
174	0x3bf02a10	0.007329233
175	0x3a14c0c4	0.0005674476
176	0x3cacea4f	0.02110782
177	0x3c53594f	0.012899711
178	0x3c1ad03b	0.00944906
179	0xbc505f10	-0.012717977
180	0xbc967fbc	-0.018371455
181	0xbb43c45f	-0.0029871685
182	0xb9a72a30	-0.00031884154
183	0x3aca1638	0.0015417999
184	0x3ca9b1ba	0.02071463
185	0xbc9a8d4f	-0.01886621
186	0x3c845cbb	0.016157499
187	0x393af36d	0.00017829025
188	0xbca0d66d	-0.019633496
189	0xbc732177	-0.014839522
190	0xbb9633c0	-0.004583806
191	0xbbdfad50	-0.0068260804
192	0x3c13e1ff	0.00902605
193	0x3c32d3ea	0.010914782
194	0xbc0fd188	-0.0087779835
195	0x3c18d626	0.009328401
196	0x3c8e9ffe	0.017410275
197	0x3c87c740	0.016574502
198	0xbc0d5517	-0.008626244
199	0x3b2f91ad	0.002678971
200	0xbc0cf74d	-0.008603883
201	0xbba881c9	-0.0051424247
202	0xbbf24001	-0.0073928838
203	0xbb027341	-0.0019905122
204	0x3c54a07c	0.012977716
205	0xbbe316a1	-0.006930188
206	0x3c84033e	0.016114827
207	0x3c47a088	0.01218427
208	0xbc5ba308	-0.013405569
209	0x3c0f9ce2	0.008765431
210	0x3c8f2555	0.017473856
211	0xbca85761	-0.020549478
212	0xbbb1736b	-0.00541537
213	0x3c963ca4	0.018339463
214	0x3cae5732	0.021281812
215	0x3bc8db4f	0.0061296592
216	0xbc48d2eb	-0.012257318
217	0xbc927ce5	-0.01788182
218	0x3ca7e243	0.020493632
219	0x3c95ae41	0.018271567
220	0x3a8a4c26	0.0010551258
221	0xbbab3050	-0.005224265
222	0xbca06670	-0.019580096
223	0x3cafedad	0.021475637
224	0xbcaefdd6	-0.021361273
225	0x3bb6f533	0.0055834292
226	0x3b748959	0.003731331
227	0x3a86979f	0.0010268575
228	0xbb5ad958	-0.0033393707
229	0x3ca50448	0.020143643
230	0xbc7111c3	-0.014713707
231	0xbca98290	-0.02069214
232	0x3c4e9912	0.012609737
233	0x3ca72f65	0.020408342
234	0x3c5ed37d	0.013600227
235	0x3c41002d	0.011779827
236	0xbbe49bc6	-0.0069765775
237	0x3b850124	0.004058974
238	0xbbd98764	-0.0066384543
239	0xbbd33ffe	-0.0064468374
240	0x3927c20d	0.0001599865
241	0x3b83c5c0	0.0040213764
242	0xbc8d5ffe	-0.017257687
243	0xbc46e7bd	-0.012140212
244	0x3c36e2c4	0.011162464
245	0x3c2ccf0c	0.010547411
246	0x3c93b2cc	0.018029593
247	0xbb2ac7db	-0.0026059065
248	0x3c8a67ce	0.016895201
249	0x3abcd49e	0.0014406627
250	0x3c3da7b2	0.011575626
251	0xbc502379	-0.01270377
252	0x3caff17b	0.021477452
253	0xbc191665	-0.009343718
254	0x3c25463d	0.010087547
255	0xbc51842e	-0.012787862

bias f4 [5]
0	0xb998f0b6	-0.00029171043
1	0x3c9b1da7	0.018935038
2	0x3d3238b1	0.043511096
3	0xbcb0d261	-0.021584691
4	0x3d3c7a1c	0.04601489
