app/mlsystem/model.ckpt (torch_old, 27232 bytes, 2 tensors)

weight f4 [5, 1338]
000000 a2 06 06 bc d1 a0 e2 3c ea c0 3c 3c 48 f0 bc bc
       -0.008180292 0.027664574 0.011520604 -0.023063794
000010 a2 8e 35 bc b6 39 cd 3c b2 c0 b1 bc 70 a4 da bc
       -0.01108137 0.025051933 -0.02169833 -0.026689738
000020 da b3 83 bc 12 a8 bb bc b1 06 86 bc 5a 26 82 bc
       -0.01607697 -0.02290729 -0.016360613 -0.015887428
000030 08 e5 40 bc ce 88 eb ba a1 75 92 3c 99 5b a1 3b
       -0.011773355 -0.0017969848 0.017878355 0.0049242494
000040 57 4c 54 3c e7 0e f4 3b 96 94 52 bc 8f 59 d1 3a
       0.012957654 0.0074480656 -0.012852808 0.0015972125
000050 1d 72 ac bc d8 a0 6f 3c e9 cd 96 bb b6 10 33 bc
       -0.021050507 0.0146257505 -0.004602183 -0.010929277
000060 10 35 c0 3c 9c 5c fd b9 1e 2f b2 bb 9c 23 d9 3c
       0.023462802 -0.0004832492 -0.0054377457 0.026506238
000070 f5 53 38 3c bc 80 2a ba 19 0c 88 3c 0f fb d7 3c
       0.011250486 -0.0006504168 0.016607331 0.026364831
000080 fc f3 f5 3c 0f 59 9d 3c 14 58 c0 3c 87 61 d5 3c
       0.030023567 0.019207506 0.023479499 0.026047481
000090 25 a4 bd 3b 65 25 9f bc d2 d3 94 3c 55 87 fd ba
       0.00578739 -0.01942701 0.01816741 -0.00193427
0000a0 e4 30 c0 3c 13 30 94 3c df 19 ab 3c 37 09 8c 3c
       0.023460813 0.01808933 0.02088636 0.017094238
0000b0 ff 32 b6 bc 79 27 c2 3c dc 4c 85 3c b0 2c 8d bc
       -0.022241114 0.023700463 0.016272001 -0.017233223
0000c0 f3 89 9e bc 75 a6 4f bc 8f 0a d7 3c c6 f9 93 3b
       -0.019352889 -0.012673964 0.026250152 0.0045158593
0000d0 b7 a3 bb 3c ba 21 7a bc fa ad 42 3c 82 31 d2 bc
       0.022905214 -0.01526683 0.0118823 -0.025658373
0000e0 12 e2 9c 3b 97 5a d8 3c 19 8f f5 bc b7 9c 8a 3c
       0.004787692 0.026410384 -0.02997546 0.01692043
0000f0 74 67 c5 bc 23 4b 6a 3c 69 8a 5c bc 60 d3 24 3c
       -0.024097182 0.014300141 -0.013460734 0.010060161
000100 3f a8 80 bc d3 71 96 3b 02 d3 a6 3c d8 6a ac bc
       -0.015705226 0.0045912056 0.020364288 -0.02104704
000110 8b 95 c8 3c 54 7b db 3c 1e 6b a2 bc 93 73 b9 3c
       0.02448537 0.026792206 -0.019826468 0.022638118
000120 70 8b ac bc e6 45 15 3c 6b 9b d8 3c 3c 3c c3 3c
       -0.021062583 0.009110903 0.026441297 0.023832433
000130 13 f4 83 bc be 81 c3 3c 44 39 ae 3c 77 a9 64 3c
       -0.016107595 0.023865577 0.02126754 0.013956419
000140 62 b6 a8 3b 12 6a b0 3c 9b a4 80 3c 5c 16 4d bc
       0.005148695 0.021534953 0.01570349 -0.012517538
000150 f8 e2 1d bc f3 ed 9e bc bb ce 33 3c fc b4 7f 3b
       -0.009636633 -0.019400572 0.010974581 0.0039017787
000160 8f e6 86 bc 0a d8 15 bc 73 51 bf bc 93 e1 33 bb
       -0.01646736 -0.009145746 -0.023354268 -0.0027447685
000170 d9 9b 33 bc 7c 91 d1 3c 9f 37 72 bc 93 48 34 3c
       -0.01096245 0.025582068 -0.014783769 0.011003631
000180 8e e9 b7 bc ce d3 83 3c a7 1b 30 3c 86 6c c9 bb
       -0.022450235 0.016092207 0.01074878 -0.00614697
000190 c8 21 e6 3c 6c f6 35 3b 0a 55 cf bc 96 29 fd 3a
       0.02809228 0.0027765287 -0.025309104 0.0019314762
0001a0 b4 e8 2d 3c a4 ba 79 3c fb ab b1 3c 50 c4 0b 3b
       0.010614563 0.0152422525 0.021688452 0.0021326728
0001b0 1d ce a1 bc db 7b 76 bc 1c 65 cc bb 38 f1 e2 bb
       -0.019751603 -0.015044178 -0.006237639 -0.006925728
0001c0 b4 f7 ce bc ee 7c 3c bb 23 c0 39 bc 34 c0 f0 3c
       -0.025264598 -0.0028760987 -0.011337313 0.029388525
0001d0 d8 49 d7 bb f0 b1 9f 3c 28 8b c2 3c a0 a9 91 bc
       -0.006570082 0.019494027 0.023747995 -0.017781079
0001e0 eb 8f ac 3c 6e e5 88 bc 1d b6 c8 3c 20 c7 a1 bc
       0.02106472 -0.016710963 0.0245009 -0.01974827
0001f0 00 d5 a8 3c 8e 86 f7 3b 38 6e eb b9 2c 1f a2 3c
       0.020609379 0.007553882 -0.00044904812 0.019790255
000200 af 60 4d bc ee 36 8a 3c b0 90 00 bc a3 8a 50 bc
       -0.012535258 0.016871896 -0.007846996 -0.012728366
000210 7c 49 4d b9 06 ed d0 3c 34 9f 4e bb d7 f2 2e bc
       -0.00019577699 0.025503647 -0.0031527998 -0.010678015
000220 81 6e 13 3b 5a 12 8e 3c 83 a0 1a 3c d5 7b 81 ba
       0.0022496285 0.017342735 0.009437683 -0.0009878824
000230 39 5e 00 3b f5 70 d3 3b a7 18 7e bc 3e 9d a8 bc
       0.001958741 0.0064526745 -0.015508807 -0.020582791
000240 f7 b6 c6 ba 21 c7 92 bc e4 d7 a6 bc 5e cb cf 3c
       -0.0015160729 -0.017917218 -0.020366617 0.025365528
000250 a0 da a6 3c 8f fc 0c bc f2 14 3c 3c 54 b6 a6 3c
       0.02036792 -0.008605137 0.011479603 0.020350613
000260 24 13 12 bc e2 7c 6e 3b 52 c5 ab bc 64 07 de bc
       -0.008915696 0.0036390354 -0.020968113 -0.027103133
000270 d3 c1 76 bc 1b a2 de ba 4e 7e 86 3b b2 91 7a bc
       -0.01506086 -0.0016985567 0.004104412 -0.0152935255
000280 10 b4 d3 ba 90 14 0e bc ff 3e 32 3c bb 7a 03 bc
       -0.0016151685 -0.008671895 0.010879277 -0.008024867
000290 cc 62 0b bc 84 fa 98 bc 7f e1 70 bc 30 18 e6 3b
       -0.008507442 -0.018674143 -0.0147022 0.0070219263
0002a0 14 5a bf bb 38 d5 73 3b 54 89 b1 3c d3 7c ab 3c
       -0.0058395956 0.0037205946 0.021671928 0.020933544
0002b0 70 16 d5 bb 3e 6d ab bc a8 cd a7 3b 12 e6 98 bc
       -0.006502919 -0.020926114 0.0051209517 -0.018664394
0002c0 55 9f b4 bc 0d 99 9a 3c df 60 95 3c 21 60 a9 bc
       -0.022048632 0.018871808 0.018234668 -0.02067572
0002d0 9d 0b 48 3b e7 7a 79 bc 02 ce c5 bc 56 2c cc 3c
       0.00305245 -0.015227056 -0.024146084 0.024923485
0002e0 19 5b 9d bc da cd 2c 3c 4e bc 28 bb 82 54 12 bc
       -0.019208478 0.010547126 -0.0025747004 -0.008931281
0002f0 26 40 18 bc b4 dd 1d 3c 24 c2 c0 bc 82 a2 a2 bc
       -0.009292638 0.009635378 -0.023530073 -0.01985288
000300 cd 8d 87 3c 41 5c 1b 3c 35 ae 58 bc 0f 1e b3 bb
       0.016547108 0.009482444 -0.013225128 -0.0054662297
000310 31 28 ab bb 8a d6 54 bc 78 2d 85 3c 5c 75 b5 bb
       -0.005223297 -0.012990603 0.016257033 -0.005537672
000320 37 85 9b 3a 9e 93 8d 3c eb 65 8a 3c 34 1a 12 3b
       0.0011865263 0.017282303 0.016894301 0.002229345
000330 61 81 88 3c 8d e7 1b bb fb 7a 8d bc 87 b2 a7 bc
       0.016663255 -0.0023789138 -0.017270556 -0.02047087
000340 36 89 89 ba 41 10 b0 bc 78 b6 2c 3c ce 96 5a bc
       -0.0010493163 -0.021492125 0.010541551 -0.013341619
000350 23 21 70 3c 57 11 93 3c 90 22 3c 3c 99 5a 98 bc
       0.014656338 0.017952604 0.01148285 -0.018597888
000360 85 15 ab 3c 75 2c ca 3c e9 35 c0 3c 73 d7 02 3d
       0.020884285 0.024679402 0.023463206 0.03194375
000370 97 bb 0d 3c d4 25 d4 3b f3 e6 19 bc 1d 0c a2 bc
       0.008650682 0.006474236 -0.0093934415 -0.019781167
000380 b8 be c1 3c e9 8c da 3c 0f 89 d5 3b 80 93 9d 3c
       0.023650512 0.02667852 0.006516583 0.019235373
000390 1a 53 a7 bb 55 43 a2 bc 50 24 97 3b dc fc a5 bc
       -0.005106342 -0.019807497 0.004612483 -0.020262174
0003a0 01 43 a2 bc a5 7d bd bb ce 39 c8 3c 99 24 16 3c
       -0.01980734 -0.0057828003 0.024441626 0.009163999
0003b0 da 3a 47 3a 2a 76 7a 3c 1d 71 da 3c 2e e9 6a 39
       0.0007600017 0.015286962 0.026665265 0.00022402845
0003c0 ac 3d 25 3b e3 ce de 3b f1 2d 9c 3c 62 ab 42 bc
       0.0025213761 0.006799565 0.019064875 -0.011881681
0003d0 a5 5d 55 bc 9b 27 85 bb fc ed 98 3c 39 35 de 3c
       -0.013022815 -0.004063559 0.018668167 0.027124988
0003e0 5f b1 4e 3c 20 a1 6a bc 5d db 2e 3c 05 1a 77 bb
       0.012615531 -0.014320642 0.0106724175 -0.0037704718
0003f0 2a f5 9e bc 32 5d 75 bc f1 c3 b0 b9 eb 16 f3 3c
       -0.019404013 -0.014975833 -0.00033715324 0.029674014

bias f4 [5]
000000 3b 44 b9 3c a2 5e 14 3e 2f 93 3a 3e 91 63 44 bd
       0.022615543 0.14489225 0.18220209 -0.047946516
000010 2c 48 2e 3e
       0.17019719
