app/mlsystem/model.ckpt (torch_old, 40528 bytes, 2 tensors)

weight f4 [5, 2000]
00000000: 1dc5 4c3c f1b0 dcba 9bff a6bc f16b 8dbc
00000010: f0ca 5abc 6776 a53c d4b8 b1bc e56e 313c
00000020: 7566 013c d273 adbc 0a16 9f3a 5fdf 273b
00000030: bcfa 533c 8f69 2b3b 5304 5f3b 4d5e 58bc
00000040: 050b 29b9 0f59 143c a7af ad3c 06c8 38bc
00000050: 5ec0 3ebc ed80 c1ba 3cfa a93c 4c1c 3f3c
00000060: 8019 b2bb 8c2d 6fbc a6a9 933c e723 2d3c
00000070: df8c 933c 9140 82bb 52b3 3f3c 4052 053c
00000080: a089 49ba 4258 abbc 9815 70bc 7f3d 40bc
00000090: f891 81bc 311b ee3b 398a 6abc fb0e 1dbc
000000a0: 3e01 ad3c d306 c6bb cfb9 f8bb 45ff b43c
000000b0: b022 0c3c 943c 49bb 2abd a1bc 6f23 a9bc
000000c0: 2e86 233c 3adf 5d3b dc92 5ebb b5ed 7fbb
000000d0: c367 adbc df3a ba3c ef04 193c 3710 d0ba
000000e0: a59e 853c b2e3 a7bb f957 86bc 3dc1 a1bc
000000f0: 9c91 91bb 3e22 413c 00e2 4f3a c372 9a3b
00000100: 351e 8ebc b6b5 963c 36fa 4a3b feca 4a3b
00000110: 1d3c 573c 0785 26bb 933d 05bc d34e 91ba
00000120: 2a37 a53b 1fe9 013c 1a4a 57bc 3c9d 9a3c
00000130: 21c6 713b fd6c 58bc 86c5 41bc 728a 603c
00000140: e428 2a3c 9dd8 b2bc 5e80 823c 60a4 7abb
00000150: 9367 a6bc 732a 533c 61a2 1bbc a9a0 8c3a
00000160: ab93 093c 42b8 873c bbd9 763b a160 e93b
00000170: 14fd d23b cee0 993c 89d1 9a3b 1d21 423c
00000180: d2eb 62bc 0a90 a4bc 110e dbbb c607 14bc
00000190: e786 f33b fe57 b4bc 1ed9 363a aa4b c63b
000001a0: 21ab b7bc 4452 273c a481 bdbb e520 9bbc
000001b0: db2b 9c3c 26d6 4fbc 2537 adbc d545 7bbc
000001c0: c086 af3c 794e b6bc 8b53 753c 668b 5abc
000001d0: 04f5 08bc 62d3 863c e0d6 313c 92fc 1e3c
000001e0: d066 84bb 8822 fbb9 4203 46bc 6380 a1bc
000001f0: 5137 103c c8df fa3b 5f9e 03bb 0f43 1ebb
00000200: 849c a93c 8812 3a3c 23d1 383c e79b 183c
00000210: 247d f4bb 030f 9ebc 3ac9 41bc 6f1f c1ba
00000220: fb99 61bc 713e 8e3b 053e a73b a24e 793c
00000230: c4d7 9c3c 1aa5 37bc b58a 11bc 86de 223c
00000240: d727 b9bc 6b6a ab3c 4b32 8bbc 0600 94bc
00000250: 352b 9abb 73dd 323c 8140 a53c 097c 91bc
00000260: 26cd 4a3c 0d6f a4bc 86cc 15bc 95a9 8f3c
00000270: 837b b4bc 6698 a03c a426 be3c 7cd6 87bc
00000280: 3bc2 643c 753c 6d3c 7c8c 41bb 9fb2 473c
00000290: 9bc9 a7bb 7234 07bc 538d 8fbc 186e 353c
000002a0: f032 d23b 2e4f 923a 132c b3bc 6438 8b3c
000002b0: b8d3 9c3c 1a5a 6cbc ef2c 50ba 1ed0 333c
000002c0: e23f a93c 61c2 fc3b 492b b2bc c2f9 b8bb
000002d0: 3b1f 7dbc db97 76b9 cbfe b83c c466 20bc
000002e0: 59f3 713c 9406 623c 2c8e 8ebc 55da 8bbc
000002f0: 0345 c73b dde4 95bc bffc 103c 71ba 6b3c
00000300: a152 ab3c 8b4b 26bc 20cc deba 1010 9f3b
00000310: 8277 ee3b cb0b 8a3c e255 293c f119 8a3c
00000320: ba52 813c e4eb 97bc 678b 9a3c 788d ad3c
00000330: 0bf2 b4bc fec6 c0bc 79a5 a9bc ab92 263b
00000340: cfc2 b3bc c09f c1bb e4ac b3bb ba90 f03b
00000350: 063a 53bc 1e76 d6bb eb5b b33c 635e 15bc
00000360: 5055 333c 7143 22bc 6717 ae3c e6aa 603c
00000370: 0b02 43bc 1e4d 10bc 3f0f 173c 2d38 1cbc
00000380: 05b5 0ebb 47f4 953b 41b6 29bc 737e a9bb
00000390: 0957 953b 4518 11bc c5c6 81bc f7f8 a3ba
000003a0: d7d6 293c 4ddc bcbc e777 abbb 74ea a13c
000003b0: 424b 4d3c d772 e3bb 6302 863c 3bb6 2fbb
000003c0: a9b2 3c3c 456a 6abc 5144 3a3c 6f61 5e3c
000003d0: 8280 a6bc 37b6 b83c 4a4f a0bb a788 683c
000003e0: 4c5d b5bb af01 173c ff74 8f3c f0ff a9bc
000003f0: 775f 4b3c 1e2f 613c 570b 25bc 12af 59bc
0.012498167 -0.0016837401 -0.020385554 -0.017263385 -0.013354048 0.02019806 -0.021694578 0.010829662
0.007897963 -0.021173391 0.0012137305 0.0025615317 0.012938198 0.0026155447 0.0034029677 -0.013206077
-0.00016121201 0.009054436 0.021201922 -0.011278158 -0.011642544 -0.0014763154 0.020749204 0.011664461
-0.0054351687 -0.014598262 0.01802523 0.010567642 0.018011509 -0.003974982 0.011700468 0.008137286
-0.0007688049 -0.020916108 -0.014653586 -0.011733412 -0.015816674 0.007266425 -0.014315181 -0.009586091
0.021118756 -0.006043294 -0.0075905095 0.022094378 0.008553192 -0.0030706273 -0.01974352 -0.020646779
0.009980721 0.0033854977 -0.0033962047 -0.0039051597 -0.021167642 0.02273315 0.009339555 -0.0015873973
0.016311 -0.005123579 -0.01639937 -0.019745464 -0.004442407 0.011787949 0.00079301 0.0047133877
-0.017348388 0.018397193 0.0030971891 0.0030943747 0.013136891 -0.002540888 -0.008132356 -0.0011086114
0.0050419765 0.007929116 -0.013140226 0.018873803 0.0036891776 -0.013209579 -0.011826878 0.013704883
0.010385726 -0.021831805 0.01593035 -0.0038244948 -0.02031306 0.012888539 -0.009499163 0.0010729033
0.008397023 0.016567353 0.0037666399 0.0071221148 0.0064388607 0.018783953 0.0047246856 0.011848715
-0.013850169 -0.020088214 -0.0066850265 -0.009035056 0.007431853 -0.022014614 0.0006975102 0.0060515003
-0.022420468 0.010212485 -0.0057832766 -0.018936584 0.01906388 -0.012685334 -0.021144459 -0.0153364735
0.021426558 -0.022254216 0.0149735315 -0.013338899 -0.0083591975 0.016458217 0.010854453 0.009703772
-0.0040405765 -0.00047900178 -0.012085738 -0.01971454 0.008802251 0.0076560713 -0.002008341 -0.0024148857
0.020704515 0.011356957 0.011280331 0.009314514 -0.007461207 -0.019294268 -0.011827761 -0.0014734099
-0.013769622 0.0043409397 0.005103829 0.015216501 0.019145854 -0.011208797 -0.008883168 0.009940749
-0.022602005 0.020924767 -0.016991755 -0.018066417 -0.0047048577 0.010917055 0.02017236 -0.01775934
0.012378013 -0.020072484 -0.0091430005 0.017536918 -0.022031551 0.01960392 0.023211785 -0.016581766
0.013962324 0.014479746 -0.0029533198 0.012188583 -0.005120469 -0.00825225 -0.017523443 0.011073612
0.0064147636 0.0011162513 -0.021871602 0.016994663 0.019143924 -0.014425779 -0.0007941266 0.010974912
0.020660345 0.0077136015 -0.021749156 -0.005645008 -0.01544934 -0.00023516959 0.022582432 -0.009790126
0.014767491 0.013795514 -0.017401777 -0.017071882 0.006081225 -0.018297607 0.008849322 0.014387713
0.020913424 -0.010149847 -0.001699809 0.0048542097 0.00727743 0.016851326 0.010335417 0.016858073
0.015786517 -0.018545099 0.0188653 0.021185622 -0.022088071 -0.023532387 -0.020708786 0.002541701
-0.021943478 -0.0059089363 -0.0054832567 0.0073414715 -0.012892252 -0.0065448424 0.021894416 -0.009116742
0.010945633 -0.009903775 0.021251393 0.01371262 -0.011902343 -0.008807449 0.009219944 -0.009534878
-0.0021775377 0.0045762393 -0.010358394 -0.0051725446 0.0045574945 -0.008855884 -0.015841851 -0.001251011
0.010366163 -0.023054266 -0.0052327993 0.019765116 0.01253015 -0.00694118 0.01635856 -0.0026811499
0.011517205 -0.014307563 0.011368827 0.013573035 -0.02032495 0.022547824 -0.0048922645 0.014192737
-0.0055348035 0.00921671 0.017511843 -0.020751923 0.012412897 0.013744144 -0.010073504 -0.013286369

bias f4 [5]
00000000: 91d0 0e3d a929 143e 3bb1 3c3e ab4d 28bd
00000010: a2f8 353e
0.034866873 0.14469017 0.18426983 -0.041089695 0.17770627
