app/mlsystem/model.ckpt (torch_old, 20612 bytes, 2 tensors)

weight f4 [5, 1007]
0.0040914905 0.021385519 -0.010220674 -0.03046365 0.02192377 -0.028042141 0.017910475 0.027527243
-0.00868035 0.0070763486 -0.031846732 0.030286955 0.06015544 -0.02854807 0.03038433 0.014581401
0.012699865 0.027865415 0.024278302 0.02795254 0.028265188 0.0040009473 0.0027781278 -0.0030430239
-0.026155755 0.0025587939 -0.007610935 0.030431157 -0.027728582 0.0001525053 0.027060203 0.019776396
-0.014816042 -0.015665999 -0.020550976 0.02455043 0.0030084592 -0.020103926 -0.02763603 -0.0058090924
-0.026846591 -0.019289954 0.029990222 0.02117545 -0.019732792 0.024529453 -0.02327494 0.0017542725
0.027209593 0.013265295 0.021224018 0.017047899 0.019332342 0.015819604 -0.014836698 0.012185125
0.01915077 0.019061055 0.007142072 0.018776918 0.016049115 -0.01798112 -0.006176676 0.029395716
-0.02092745 0.018147737 -0.006754066 0.030083194 0.016724983 -0.00030197136 0.017733607 0.034439225
0.025438432 0.016608292 -0.016600354 -0.02842021 0.008983611 -0.013022539 0.023348998 0.0152892945
-0.051395744 0.016896246 -0.0022439745 0.017392877 0.014932262 -0.010228356 -0.0120645305 -0.0033962906
0.0039637564 0.028790804 -0.009863062 0.030558629 -0.0123895705 -0.007547568 0.016040826 0.0070358985
-0.024567578 0.020406103 -0.01827095 -0.014476836 0.028962959 -0.030197186 0.018118482 0.015985064
-0.016837481 -0.013839832 0.024848208 0.006111837 0.022488398 0.022347031 0.004038789 0.016150588
0.00079920783 0.00455698 0.030275382 0.0055192616 0.00653753 0.014291208 0.004120513 -0.015777417
-0.024366375 -0.0015641699 0.006211903 -0.027388686 0.014793602 0.011449161 -0.0032349525 -0.008529192
0.034034755 0.020487102 -0.023822287 -0.034056142 0.023509435 -0.031545248 0.008070953 -0.007862041
0.013010914 0.004775996 0.021740245 0.0033675793 0.013099885 -0.02793778 -0.013126748 0.0059961597
-0.020862855 0.010288311 -0.0065951967 -0.0008902778 0.028081236 -0.019974519 0.006391376 -0.02886037
0.027684527 0.004944289 0.017441068 -0.009131797 0.0014419089 0.0056551965 -0.009641417 0.000928718
-0.0072509632 0.005478044 0.0349175 -0.002054122 -0.00040074863 0.029506084 0.019194927 -0.02733074
0.024417924 0.0290107 -0.025518412 -0.032197833 0.00734135 -0.022014234 0.015412711 -0.017010214
-0.019128304 -0.02820205 -0.02470344 -0.028463708 -0.0016244514 -0.021988615 0.0003836228 -0.0008852155
0.0019946792 0.027073791 -0.011533699 -0.0283737 -0.0127670085 0.018623728 0.022820706 -0.019159291
-0.01416183 0.01787944 0.0149223395 -0.0022647972 0.0066166436 -0.00078876666 0.012184147 0.005662352
-0.019422282 -0.031633526 -0.0044342787 0.01085999 0.015328493 0.0059933923 0.0010559093 0.0044990163
0.014215163 0.008871638 -0.00077652815 0.02916719 -0.018438878 -0.013922964 -0.013767923 0.026847292
0.009619956 -0.019654669 0.008832617 0.016797926 0.023517244 -0.012896285 0.0004304346 0.030685682
-0.014020364 0.010686652 -0.021307984 -0.008966945 -0.023703841 -0.030392842 0.014402732 0.02540134
0.025382563 -0.0067308503 0.007942362 0.004007249 -0.0030119717 0.020308506 -0.00065168773 -0.00125324
0.025456825 -0.018862313 -0.00039996658 -0.026170088 -0.012917765 0.008366553 0.021657601 0.008106177
-0.009178858 0.026962765 0.027463954 0.027972285 -0.0037074897 0.003206878 0.02423909 -0.005952081
00000000: e911 863b af30 af3c 9d74 27bc e88e f9bc
00000010: 7a99 b33c a2b8 e5bc fdb8 923c d080 e13c
00000020: 0738 0ebc b7e0 e73b b871 02bd 591c f83c
00000030: 8d65 763d a4dd e9bc 8fe8 f83c d4e6 6e3c
00000040: 1813 503c 0346 e43c 4ae3 c63c bafc e43c
00000050: 658c e73c 611a 833b 4011 363b 786d 47bb
00000060: 9844 d6bc 70b1 273b 2665 f9bb c34a f93c
00000070: 0d27 e3bc d4e9 1f39 5cad dd3c 1c02 a23c
00000080: fcbe 72bc fb55 80bc 855a a8bc fc1d c93c
00000090: 9229 453b fdb0 a4bc f564 e2bc 335a bebb
000000a0: 62ed dbbc f705 9ebc 0eae f53c 2378 ad3c
000000b0: aaa6 a1bc fef1 c83c 16ab bebc 9eef e53a
000000c0: a7e6 de3c ae56 593c fedd ad3c 09a8 8b3c
000000d0: dc5e 9e3c 1d98 813c 9f15 73bc 1ea4 473c
000000e0: 13e2 9c3c ee25 9c3c 0b08 ea3b 0dd2 993c
000000f0: 6f79 833c 244d 93bc b765 cabb 49cf f03c
00000100: 0b70 abbc 90aa 943c 3651 ddbb 0871 f63c
00000110: d502 893c e951 9eb9 1246 913c 2510 0d3d
00000120: 4264 d03c 1d0e 883c 77fd 87bc 80d1 e8bc
00000130: ff2f 133c 7d5c 55bc 6646 bf3c f37f 7a3c
00000140: 5884 52bd ff69 8a3c a50f 13bb 827b 8e3c
00000150: 72a6 743c d694 27bc 4faa 45bc 4d94 5ebb
00000160: 66e2 813b b1da eb3c ae98 21bc 1756 fa3c
00000170: a0fd 4abc 9751 f7bb 0d68 833c 658d e63b
00000180: f241 c9bc b32a a73c f6ac 95bc 4030 6dbc
00000190: ba43 ed3c 1760 f7bc 366d 943c 1cf3 823c
000001a0: c2ee 89bc 76c0 62bc 788e cb3c ce45 c83b
000001b0: 9739 b83c 1f11 b73c d157 843b 3d4e 843c
000001c0: ee81 513a b852 953b 1404 f83c ecda b43b
000001d0: c738 d63b ac25 6a3c 5e05 873b a43f 81bc
000001e0: fe9b c7bc d504 cdba 388d cb3b 3d5e e0bc
000001f0: dd60 723c 4395 3b3c 7f01 54bb 06be 0bbc
00000200: 0768 0b3d 91d4 a73c f526 c3bc 747e 0bbd
00000210: dc96 c03c 9735 01bd 083c 043c cacf 00bc
00000220: bb2b 553c f57f 9c3b 9918 b23c 9bb2 5c3b
00000230: e6a0 563c c5dd e4bc 9211 57bc 6f7b c43b
00000240: 94e8 aabc 4e90 283c 851c d8bb 8861 69ba
00000250: 9f0a e63c 9aa1 a3bc bf6e d13b 956c ecbc
00000260: a9ca e23c b403 a23b 92e0 8e3c 889d 15bc
00000270: 6ffe bc3a 3a4f b93b 09f7 1dbc 3675 733a
00000280: 7d99 edbb 2a81 b33b a705 0f3d 739e 06bb
00000290: 921b d2b9 beb6 f13c ae3e 9d3c b7e4 dfbc
000002a0: 1908 c83c d9a7 ed3c fd0b d1bc e0e1 03bd
000002b0: b58f f03b 3257 b4bc 9885 7c3c 0159 8bbc
000002c0: f6b2 9cbc fc07 e7bc de5e cabc b92c e9bc
000002d0: 8beb d4ba 7821 b4bc fb20 c939 ce0d 68ba
000002e0: 2ab9 023b dbc9 dd3c d7f7 3cbc f66f e8bc
000002f0: b72c 51bc ca90 983c 7df2 ba3c f2f3 9cbc
00000300: 0507 68bc e777 923c d47c 743c fe6c 14bb
00000310: 6ed0 d83b 3cc5 4eba 04a0 473c 408b b93b
00000320: 7a1b 9fbc 2892 01bd 6d4d 91bb 19ee 313c
00000330: 5c24 7b3c 3864 c43b 7066 8a3a 7c6c 933b
00000340: b7e6 683c 595a 113c ec8f 4bba 08f0 ee3c
00000350: 210d 97bc 251d 64bc db92 61bc daee db3c
00000360: 059d 1d3c d402 a1bc aeb6 103c ce9b 893c
00000370: 3ca7 c03c f14a 53bc f4ab e139 8a60 fb3c
00000380: abb5 65bc 1117 2f3c 158e aebc 18ea 12bc
00000390: 8f2e c2bc 69fa f8bc 70f9 6b3c 7916 d03c
000003a0: 18ef cf3c 778e dcbb ae20 023c 3e4f 833b
000003b0: 8064 45bb 065e a63c 06d6 2aba c243 a4ba
000003c0: d58a d03c 2385 9abc 9bb2 d1b9 a762 d6bc
000003d0: 09a5 53bc de13 093c 486b b13c c5cf 043c
000003e0: ec62 16bc 04e1 dc3c 16fc e03c 2226 e53c
000003f0: 5bf9 72bb 7c2a 523b 0e91 c63c ad09 c3bb

bias f4 [5]
0.103852935 0.23568209 0.3523457 -0.11873647 0.3034412
00000000: d9b0 d43d a556 713e a866 b43e 1b2c f3bd
00000010: a55c 9b3e
